api/home_price_model.pth (torch, 120233 bytes, 7 tensors)

weight f4 [456, 5]
0	0xc02c14ad	-2.688762
1	0xbec7a7b5	-0.38995138
2	0xbf5952d3	-0.84892005
3	0x3f3b8b1f	0.73259157
4	0xc0350677	-2.8285196
5	0xc00ef7b3	-2.2338684
6	0xbfc1838c	-1.511827
7	0xbf29e1fe	-0.6636046
8	0x3f4a8a20	0.7911701
9	0xbf184eb1	-0.59495074
10	0xc0251a15	-2.579717
11	0xc04ea150	-3.2285957
12	0xc081e6d4	-4.0594273
13	0x41089fad	8.538983
14	0xc0ce01e1	-6.4377294
15	0x3e2c1013	0.16803007
16	0x3ef404c6	0.47659892
17	0x3f5fc83c	0.8741491
18	0xbf6dd1f0	-0.92898464
19	0x3f931c46	1.1493003
20	0xbfff7e3a	-1.9960396
21	0xc00373d5	-2.0539448
22	0xc090f5b5	-4.5299935
23	0x400c541e	2.192634
24	0xc054bd28	-3.3240452
25	0xc0a91a2d	-5.2844453
26	0xc097cf6a	-4.744069
27	0xc0b96d39	-5.794583
28	0x402e5d3f	2.7244413
29	0xc072c52c	-3.7932844
30	0xc0848eae	-4.142417
31	0xbfedee2b	-1.8588308
32	0xc0303270	-2.7530785
33	0xbf7e5940	-0.99354935
34	0xbed46713	-0.4148489
35	0xc04d9408	-3.21216
36	0xc0304220	-2.754036
37	0xbff24483	-1.8927158
38	0x3e990d99	0.29893187
39	0xbf77a5a2	-0.9673711
40	0x3da354b1	0.07975138
41	0xbe28fc20	-0.16502428
42	0xbedbc5d9	-0.42924383
43	0x3f5e3b42	0.8680917
44	0x3f2cdfb4	0.67528844
45	0xc08b3ad1	-4.3509297
46	0xc0a1e32f	-5.0589824
47	0xbf9a4728	-1.2052965
48	0xbfa5a728	-1.2941637
49	0xbda27a6c	-0.07933506
50	0xbfddaee6	-1.7319
51	0xc053d208	-3.3096943
52	0x3ff2ac40	1.8958817
53	0x3fab806f	1.339857
54	0xbbc72d51	-0.0060784
55	0xbff1a261	-1.8877679
56	0xc07b9766	-3.9311156
57	0xc07557f9	-3.8334944
58	0x3f9c64f9	1.2218314
59	0xbf1e3fb7	-0.6181597
60	0xc0a9dfeb	-5.3085837
61	0xc09d1c28	-4.909687
62	0xc06df525	-3.7180874
63	0x40512139	3.2676528
64	0xc0557d92	-3.3357892
65	0xc08a32e3	-4.3187118
66	0xbfc77928	-1.5583849
67	0xbf9c7a60	-1.2224846
68	0xc011f003	-2.2802742
69	0x3fee0515	1.8595301
70	0xc087dfa6	-4.246051
71	0xc098ae12	-4.771249
72	0xc05a1c02	-3.4079595
73	0x3fca39ff	1.5798949
74	0xc01295af	-2.290386
75	0xc08716e9	-4.2215466
76	0xc0262ecc	-2.5966063
77	0xc00c1e90	-2.1893654
78	0x3fb3e8df	1.4055442
79	0xbfdc6d0c	-1.7220778
80	0xc045ab41	-3.0885775
81	0xc02065f7	-2.5062234
82	0xbff756df	-1.9323386
83	0xbf757348	-0.9587903
84	0x3f20cc50	0.62811756
85	0xbffe74ad	-1.9879357
86	0xc01cdb91	-2.4509013
87	0xc017ec2c	-2.3737898
88	0x3fa645c7	1.2990044
89	0xc07a54bf	-3.9114225
90	0xc0608b0c	-3.5084867
91	0xc05de71d	-3.467231
92	0xc097c3e8	-4.7426643
93	0x409f5cac	4.9800625
94	0xc073fb03	-3.8121955
95	0xc084760c	-4.13941
96	0xbfff43d7	-1.9942578
97	0xbfeb4c9d	-1.8382756
98	0x4033b9d4	2.808217
99	0xbf9e6e84	-1.2377477
100	0xbfc70571	-1.5548536
101	0x3ea9f805	0.33197036
102	0x3f391819	0.72302395
103	0x3f64f821	0.89441115
104	0xbe68ba5f	-0.22727345
105	0xc02c625f	-2.693504
106	0xc024c08b	-2.574252
107	0xc009efe0	-2.1552658
108	0x409d0b10	4.9076004
109	0xc058b5b2	-3.3860898
110	0xc12693e4	-10.411106
111	0xc11d8498	-9.8448715
112	0xc119465d	-9.579679
113	0x40fcc27b	7.8987403
114	0xc12f4ab7	-10.955741
115	0xc0696613	-3.646855
116	0xc08948d2	-4.290139
117	0x3dc6f244	0.09714177
118	0xc0f7901c	-7.7363415
119	0x406d3322	3.706246
120	0xc09944cc	-4.789648
121	0xc092077f	-4.563415
122	0xc0a2cac4	-5.0872517
123	0x4052a198	3.291113
124	0xc0178ea7	-2.3680818
125	0x3da74e4b	0.0816923
126	0x3fa27e75	1.2694842
127	0xbe5ff554	-0.21870929
128	0xbf7e67d6	-0.9937719
129	0xbe86c0ce	-0.26318973
130	0xc126e37b	-10.430537
131	0xc13960c1	-11.586122
132	0xc13c1647	-11.755439
133	0x413f496a	11.955423
134	0xc12fa30e	-10.977308
135	0xc009d9b3	-2.1539123
136	0xc0203b8f	-2.5036352
137	0xc099b562	-4.8033915
138	0x40821f4e	4.0663214
139	0xc08b020d	-4.3440003
140	0xc0443f9e	-3.066383
141	0xc0957f73	-4.671808
142	0xbfb00e89	-1.3754436
143	0x3fcafc2b	1.5858206
144	0xc045084f	-3.078632
145	0xc06e6cd2	-3.7253919
146	0xc09ae108	-4.8399696
147	0xbf126f4c	-0.57201076
148	0xc027be91	-2.6210063
149	0xbfd8cd8c	-1.6937728
150	0xc0c77516	-6.2330427
151	0xc0a9bee8	-5.304554
152	0xbffdce0c	-1.9828506
153	0x40086a5d	2.131492
154	0xbfdf8f71	-1.746565
155	0xc0868455	-4.203654
156	0xc0538445	-3.304948
157	0xc059aecf	-3.4012945
158	0x401b75aa	2.4290566
159	0xbfd001ec	-1.6250587
160	0xc0818370	-4.0472946
161	0xc0384660	-2.8792953
162	0xc02094d6	-2.5090842
163	0x3fb610d5	1.4223887
164	0xc007b75a	-2.120566
165	0x3f1a8ee8	0.6037431
166	0xc046b1f2	-3.104611
167	0xc055d0b1	-3.3408625
168	0x3eb9e250	0.36305475
169	0xbfaaaa74	-1.3333268
170	0xc08fdcc6	-4.4957
171	0xc0bfa155	-5.988444
172	0xc0738b12	-3.8053632
173	0x4080bcb1	4.0230336
174	0xc0613da7	-3.519388
175	0xc0b06e51	-5.5134664
176	0xc09f26e1	-4.973496
177	0xc093d7e4	-4.620104
178	0x40b09427	5.518085
179	0xc0925534	-4.572901
180	0xbf94876b	-1.1603826
181	0xbfc14eee	-1.5102212
182	0xbf4bfcd4	-0.7968266
183	0xbf9fa2c0	-1.2471542
184	0xc02f6532	-2.7405515
185	0xbfbd60d8	-1.4795179
186	0xbfbf82f9	-1.4961845
187	0xbda72eb6	-0.08163206
188	0xbe9bf740	-0.30462074
189	0xbfe465ac	-1.7843528
190	0xc06660b3	-3.599652
191	0xc0948daf	-4.6422954
192	0xbfdcb609	-1.7243053
193	0x3f674cc2	0.903515
194	0xbec47891	-0.38373235
195	0xc038054f	-2.875324
196	0xbf9dacee	-1.2318399
197	0xc00d6406	-2.20923
198	0xc00abf78	-2.1679363
199	0xbf832955	-1.0246989
200	0xc0dc60bb	-6.886808
201	0xc0a8a4fe	-5.2701406
202	0x3d098ffd	0.033584584
203	0xc0401bb8	-3.0016918
204	0x3ff13e17	1.8847073
205	0xbe6f17ba	-0.23348895
206	0xbf0f29e2	-0.55923283
207	0xbe97dad1	-0.2965913
208	0x3de44ff6	0.11148064
209	0x3d2e0d19	0.04249296
210	0x400dfc03	2.2185066
211	0xbff46e7d	-1.9096218
212	0xbea38824	-0.31939805
213	0x3fde4dad	1.7367455
214	0xbf648967	-0.8927216
215	0xc04f33a5	-3.2375271
216	0xc0907267	-4.513965
217	0xc048651f	-3.131172
218	0xc0649dcc	-3.5721312
219	0x3f9895af	1.192068
220	0xc0220720	-2.5316849
221	0xc044f931	-3.0777094
222	0xbfe0fad1	-1.7576543
223	0x40912bbf	4.53659
224	0xbfd8faa2	-1.6951487
225	0xc044c040	-3.074234
226	0xc087c425	-4.2426934
227	0xbf82ba18	-1.0213041
228	0x400fb76e	2.2455707
229	0xbfd1068a	-1.633012
230	0xc022a864	-2.5415277
231	0xbfa5ddbc	-1.2958293
232	0xbfe02e18	-1.7514067
233	0x3f49b799	0.7879577
234	0xbec586fc	-0.38579547
235	0xc0397d47	-2.8982713
236	0xbfbfcbd1	-1.4984075
237	0xbfcc1664	-1.5944333
238	0x3ff6b043	1.9272541
239	0xbf5d2636	-0.8638643
240	0xbfee2e1f	-1.8607825
241	0xbf7acab3	-0.97965544
242	0xbfcfa8d9	-1.6223403
243	0x3e9018a9	0.28143814
244	0x3f191ee3	0.59812754
245	0x3f6dd54c	0.9290359
246	0xbc1495b8	-0.009068899
247	0xbfbfa541	-1.4972306
248	0x3f965671	1.174513
249	0x3c69d17a	0.0142711345
250	0xc0dccb17	-6.8997912
251	0xc0c1c77a	-6.0556
252	0xc062f24e	-3.546039
253	0x401920f1	2.3926356
254	0xc0744cbe	-3.817184
255	0xc101ff15	-8.124776

weight f4 [2381, 5]
0	0x3f3eee5e	0.7458247
1	0x3e00670d	0.12539311
2	0x404d1ded	3.2049515
3	0xc04067b4	-3.0063295
4	0x3f23e0b6	0.64014757
5	0xc065bec8	-3.5897694
6	0x3f9ca5a9	1.2238055
7	0xc049dc91	-3.1540873
8	0x4022bb10	2.5426674
9	0xc0972241	-4.7229314
10	0x401550b4	2.3330507
11	0xbf8da1ae	-1.1064966
12	0x3f076f68	0.5290437
13	0xbf8855b8	-1.0651159
14	0xbf766483	-0.9624712
15	0xc1528738	-13.158012
16	0x415ad670	13.677353
17	0xc157ffdf	-13.499969
18	0x41683f60	14.515472
19	0xc157cc56	-13.487387
20	0xc063c5f8	-3.558958
21	0x40363fb2	2.8476377
22	0xc06152a8	-3.52067
23	0x401152f5	2.2706883
24	0xc07590a7	-3.8369539
25	0xc073053d	-3.7971947
26	0x4099ea62	4.809861
27	0xc0a7c6c8	-5.2430153
28	0x4099a0a7	4.800861
29	0xc0b65dee	-5.698966
30	0xc0564fa3	-3.3486106
31	0x40787571	3.882168
32	0xc0331312	-2.798039
33	0x405eb77b	3.4799488
34	0xc043dfdd	-3.0605385
35	0xbf3fde1a	-0.74948275
36	0x3ee913b9	0.4552286
37	0xc01d52c1	-2.458176
38	0x403145ae	2.769878
39	0xbfd38bc1	-1.6527025
40	0x3f5b50ac	0.8566997
41	0xbf10f8bf	-0.56629556
42	0x401fd5af	2.4974172
43	0x3f99c8b5	1.2014376
44	0xbe79c199	-0.24390258
45	0x3fe15053	1.7602638
46	0x3f61110a	0.87916625
47	0xbf22034e	-0.6328629
48	0x3ec86164	0.39136803
49	0xbf0d8d92	-0.55294144
50	0x40964d54	4.6969395
51	0xc0020bf5	-2.0319798
52	0x40b7f35e	5.748458
53	0xc0403d12	-3.0037274
54	0x3eb4bcde	0.35300344
55	0xbea75768	-0.32683873
56	0xbf3ac4fd	-0.7295683
57	0x3fa9a9a2	1.3254893
58	0x3f7b9c0e	0.98284996
59	0x3d9226cd	0.07136307
60	0xc008cba3	-2.137429
61	0xbcceefdc	-0.025260858
62	0xc00a2fda	-2.1591706
63	0x3ecdb37f	0.40176007
64	0xc017b0fd	-2.3701775
65	0x3dd6a042	0.104797855
66	0xbfaddc74	-1.3582902
67	0x3d673f8a	0.05645708
68	0xbfb4f4c6	-1.4137199
69	0x3f434407	0.76275676
70	0x400a364e	2.1595645
71	0x3e5d31ca	0.21601024
72	0x3f9eaaa5	1.2395827
73	0xbfad9538	-1.3561163
74	0x3f2221a3	0.63332576
75	0x3f4c8cc7	0.7990231
76	0x3e109bb4	0.14121896
77	0x3f980a90	1.1878223
78	0x3db80467	0.08985215
79	0xbe16a511	-0.14711405
80	0x4009d1dd	2.153434
81	0xbf1ad1f2	-0.604766
82	0x3f8adcea	1.0848668
83	0xbf9d3371	-1.2281324
84	0x3f785a3b	0.9701268
85	0x4040a30e	3.009952
86	0xc017096a	-2.3599496
87	0xbd234775	-0.03986307
88	0xc03cfd66	-2.9529662
89	0x4030155b	2.7513034
90	0x40bbb400	5.8657227
91	0xc0d95ce2	-6.792588
92	0x3ffa2f2d	1.9545647
93	0xc0cf2b9e	-6.4740744
94	0x4082aa98	4.0833244
95	0x3ea81300	0.32826996
96	0xbfdaf099	-1.7104675
97	0x3f8bc571	1.0919629
98	0xbf615812	-0.8802501
99	0x402a1be1	2.6579516
100	0x3f73b9cf	0.95205396
101	0xbf9e5f86	-1.2372901
102	0x3f93ad32	1.153723
103	0xbf96887b	-1.17604
104	0x3fae0f6b	1.3598455
105	0x408247e7	4.071277
106	0xc00f5204	-2.2393808
107	0x40a2615c	5.0743847
108	0xbf923f6d	-1.1425606
109	0x3f6b0aca	0.9181334
110	0x408edc3a	4.464383
111	0xc0a6f15b	-5.2169623
112	0x4038892c	2.8833723
113	0xc09cb528	-4.897114
114	0x407c1c9e	3.9392467
115	0x405bfb87	3.437227
116	0xc03977a3	-2.897927
117	0x3fc52290	1.5401173
118	0xbfdadef6	-1.7099292
119	0x40621da8	3.53306
120	0x3f0822b8	0.53177977
121	0xbf5a63d4	-0.85308576
122	0x407466ca	3.8187737
123	0xc019dd76	-2.404142
124	0x3f9587a2	1.1682017
125	0x3f0f9a4e	0.56094825
126	0x3e1e43f0	0.15455604
127	0x3ef5f7dc	0.48040664
128	0xbec343ac	-0.38137567
129	0xbe09560d	-0.13411732
130	0x40215884	2.5210276
131	0xc028f2fd	-2.6398308
132	0x4038e1f2	2.8887906
133	0xc00920f4	-2.1426363
134	0x4015e722	2.3422322
135	0x402ef624	2.7337732
136	0xbfe6daad	-1.8035485
137	0x3f097ada	0.5370308
138	0xbfc5af5c	-1.544414
139	0x3ff311c7	1.89898
140	0x4039ac8e	2.901157
141	0xc04778ef	-3.1167562
142	0x40e7a84e	7.239295
143	0xbf583dbd	-0.84469205
144	0x3f237388	0.6384816
145	0xbdffe9a0	-0.12495732
146	0x3e135b78	0.14390361
147	0x3fc2afb0	1.5209866
148	0x3f8b7433	1.0894836
149	0xbf857142	-1.0425189
150	0x40107001	2.2568362
151	0xbfe063cc	-1.7530456
152	0x40149938	2.3218517
153	0xc00bfc3a	-2.1872697
154	0x40012073	2.0176055
155	0x3e4ee1e8	0.20203364
156	0x3fbc4e0a	1.4711316
157	0xbf6ef702	-0.93345654
158	0x40015746	2.0209517
159	0x4008a711	2.135197
160	0x3fa3648f	1.2765063
161	0xc01b3daa	-2.4256387
162	0x40649cf2	3.5720792
163	0xbec1f43d	-0.37881652
164	0x400489db	2.070914
165	0x3f02e209	0.5112615
166	0x3edfade6	0.4368736
167	0xbf7c38f5	-0.9852441
168	0x3fa92b3a	1.3216317
169	0xbfa482bb	-1.2852396
170	0x401a6e8a	2.4129968
171	0xc05d7540	-3.4602814
172	0x4015a300	2.3380737
173	0xc014dde4	-2.3260431
174	0x3fba55e7	1.4557465
175	0x4041ed17	3.0300958
176	0xbfae489a	-1.3615906
177	0x40b367ec	5.606436
178	0xbfca1719	-1.5788299
179	0x3f215ddd	0.6303385
180	0xbeee248c	-0.46512258
181	0xbf8ed39c	-1.1158328
182	0x3f26ef3b	0.65208787
183	0xbeae13af	-0.33999392
184	0xbfc20d9b	-1.5160402
185	0x3f47e718	0.78086996
186	0xbfae5f34	-1.3622804
187	0x3fba3c80	1.4549713
188	0xbf5dd948	-0.8665967
189	0x3f07bce3	0.53022593
190	0x3fedca9d	1.8577458
191	0xbfa6bf0d	-1.3027054
192	0x40919adf	4.550155
193	0xc038c1d8	-2.8868313
194	0x3fb49b1b	1.4109834
195	0x40968696	4.703929
196	0xc0439e64	-3.0565424
197	0x405d1913	3.4546554
198	0xc07b36de	-3.9252238
199	0x3fc017cf	1.5007266
200	0x40d465f9	6.637448
201	0xc0a528db	-5.1612372
202	0x409d6d0f	4.919563
203	0xc0cbc528	-6.367817
204	0x4077b1c9	3.8702261
205	0xbfdb8d38	-1.7152472
206	0x3f865d46	1.0497215
207	0xbf239738	-0.63902617
208	0x3cd72e71	0.026267262
209	0x3e82169d	0.25407878
210	0x40441b21	3.0641558
211	0xc0468c8c	-3.1023283
212	0x4032dac0	2.7946014
213	0xc083c75f	-4.1180873
214	0x407b6836	3.9282355
215	0x3fafe232	1.3740904
216	0xc032a3d0	-2.7912483
217	0x409bc444	4.867708
218	0xbff5ac55	-1.9193217
219	0x400700ec	2.1094313
220	0x40013e03	2.01941
221	0xc088a2e2	-4.269883
222	0x408b71fb	4.3576636
223	0xbfecfdd6	-1.8514965
224	0x40071adc	2.1110144
225	0x402cf9cb	2.7027462
226	0xc050f149	-3.2647269
227	0x3f75a373	0.9595253
228	0xbf56edd6	-0.8395666
229	0x3fc0e56d	1.5070015
230	0x40500f33	3.2509277
231	0xc01856ac	-2.38029
232	0x3ecad250	0.3961358
233	0xc055595b	-3.3335788
234	0x40899287	4.2991366
235	0x4083b15e	4.1154013
236	0xbfd411cb	-1.656793
237	0x404665c7	3.099962
238	0xc0293036	-2.6435676
239	0x3fe53676	1.7907245
240	0xbe92920a	-0.28627044
241	0xbffdabab	-1.9818014
242	0x4048fd0c	3.1404448
243	0xbfed2183	-1.8525852
244	0x3f8f327f	1.1187285
245	0x3f290c63	0.66034526
246	0xbfd9189f	-1.6960639
247	0x3f1e8325	0.6191886
248	0xbfbaf381	-1.4605561
249	0x3e9e8560	0.30961132
250	0x40a2671f	5.075088
251	0xc0a78c5f	-5.235885
252	0x407c4bd6	3.9421287
253	0xc0b0e098	-5.527416
254	0x4074c59c	3.824561
255	0xbf62af75	-0.88548976

weight f4 [32, 15]
0	0xc0cb1c0e	-6.3471746
1	0x416a6a1f	14.650908
2	0xc165d514	-14.364521
3	0x40dc611a	6.886853
4	0xc158414f	-13.5159445
5	0xc15c35a6	-13.763098
6	0x3fb2a8f1	1.3957807
7	0xc18226fe	-16.26904
8	0x4171a856	15.103598
9	0xc1329cbd	-11.163266
10	0x417705e4	15.438938
11	0x4147f2fe	12.496824
12	0xbf1a76e6	-0.60337675
13	0x4161e7d2	14.119097
14	0x41617f86	14.093634
15	0x3e07157f	0.13191794
16	0x3e0c5e4f	0.13707851
17	0xbd409e5b	-0.04702602
18	0x3e7748b8	0.24148834
19	0x3d8841af	0.06653153
20	0xbd587de2	-0.052854426
21	0x3d7cabe4	0.061687365
22	0x3e370afe	0.17875287
23	0xbe3b38fa	-0.18283454
24	0xbd87b2c0	-0.06625891
25	0xbcedadb1	-0.029013487
26	0xbeab84f4	-0.33499873
27	0xbd7ae80c	-0.061256453
28	0xbd11bbf3	-0.035579633
29	0xbeaf5917	-0.34247658
30	0xc213ae6c	-36.920334
31	0xc2103768	-36.054108
32	0xc1b19c36	-22.201275
33	0x410107d0	8.064407
34	0xc181f2c5	-16.24354
35	0x4131a3b0	11.102463
36	0xc0da3abf	-6.819671
37	0x41bb8d32	23.443943
38	0x3f464c7b	0.7746045
39	0xc18dce8e	-17.725857
40	0xbfe39dce	-1.7782533
41	0x41aaa818	21.332077
42	0x3e5ecb90	0.2175734
43	0x42466a72	49.60395
44	0xc1d54ec7	-26.663465
45	0xc21573e7	-37.363186
46	0xc210ea46	-36.228783
47	0xc19bdf04	-19.483894
48	0xc0095bd4	-2.1462297
49	0xc1225641	-10.146058
50	0x4073861e	3.8050609
51	0x3f8b07eb	1.0861791
52	0x4199a923	19.207586
53	0x410af676	8.685171
54	0xc1dd2a3e	-27.645626
55	0xc0653a9e	-3.5817027
56	0x419a333a	19.275013
57	0xbda88e6e	-0.08230291
58	0x4245f3a9	49.48795
59	0xc1af8af6	-21.942852
60	0xc21e1dfb	-39.529278
61	0xc21a1c98	-38.527924
62	0xc19093a3	-18.072088
63	0xc17b3211	-15.699723
64	0xc0547db3	-3.320172
65	0xc0bc595f	-5.8859096
66	0x411cc013	9.796893
67	0x41572c3e	13.448301
68	0x418f1090	17.883087
69	0xc20895f0	-34.146423
70	0xc043dc6c	-3.0603285
71	0x4199ec5b	19.240408
72	0xbdec00ad	-0.115235664
73	0x425cb7cf	55.1795
74	0xc0fb627a	-7.855771
75	0xc20d713b	-35.360577
76	0xc20a3680	-34.553223
77	0xc1abbc2e	-21.466885
78	0x40f139cb	7.538305
79	0xc1743e20	-15.265167
80	0x40f56443	7.668489
81	0xc04de0ef	-3.2168539
82	0x419e432e	19.782803
83	0x408cb8bf	4.397552
84	0xc1ad49fa	-21.661121
85	0xc047ff74	-3.1249666
86	0x419e4b03	19.786627
87	0x3ba49e5e	0.0050237617
88	0x423c70bb	47.11009
89	0xc1df3a43	-27.903448
90	0xbe48a7fd	-0.19595332
91	0x3c58390e	0.013197197
92	0xbd8f0313	-0.06983008
93	0xbd028a82	-0.031870373
94	0x3ec030c8	0.37537217
95	0x3e2adc25	0.16685541
96	0xbde55567	-0.1119793
97	0xbd45a7f7	-0.048255887
98	0xbbb1deb2	-0.0054281587
99	0x3dbae5df	0.09125876
100	0xbeb9f069	-0.3631623
101	0xbc8ba953	-0.017048514
102	0xbd431604	-0.047628418
103	0xbea029fb	-0.3128203
104	0xbed3bb03	-0.41353616
105	0x3def1a2b	0.11674913
106	0xbd55f26c	-0.052233145
107	0xbd7bbfee	-0.061462335
108	0xbdfbcb3f	-0.122946255
109	0xbdc4f809	-0.096176215
110	0xbcaa5a37	-0.02079497
111	0xbe0d9358	-0.13825738
112	0xbe26d898	-0.16293561
113	0xbdb26b61	-0.08711887
114	0x3e960178	0.29297996
115	0xbe78efd8	-0.24310243
116	0xbea2bf71	-0.31786683
117	0xbd504709	-0.050848994
118	0xbd30dcdc	-0.043179378
119	0x3e325cbd	0.1741819
120	0xc2181911	-38.02448
121	0xc21410db	-37.01646
122	0xc1b0faab	-22.122396
123	0x40ca4435	6.320826
124	0xc1764727	-15.392371
125	0x413b3e0e	11.70265
126	0xc0f328fb	-7.5987525
127	0x41c38848	24.441544
128	0x3e774824	0.24148613
129	0xc190e5e6	-18.112255
130	0xbfadddbd	-1.3583294
131	0x41ad1a68	21.637894
132	0x3e2cc266	0.16871032
133	0x4247db27	49.964016
134	0xc1cb4c77	-25.412336
135	0xc0dc16f1	-6.8778005
136	0xc13e31ac	-11.887127
137	0xc1947726	-18.558178
138	0x41bc63c8	23.548721
139	0xc19fcc70	-19.974823
140	0xc1f897aa	-31.074055
141	0x4207c0fe	33.93847
142	0xc20e195e	-35.524773
143	0x41d54c0e	26.662136
144	0xc203b28e	-32.92437
145	0xc17898ad	-15.537274
146	0x4119985e	9.599699
147	0x3e1fdbd8	0.15611207
148	0x41a048b8	20.035507
149	0xc24187a7	-48.382473
150	0xc13e5fd3	-11.898395
151	0x4126106a	10.379007
152	0xc186e1d4	-16.860268
153	0x411e99e0	9.912567
154	0xc17fa46a	-15.97764
155	0xc160735c	-14.028164
156	0x3eb4867c	0.35258853
157	0xc174c7b6	-15.298758
158	0x415a258a	13.634165
159	0xc132795a	-11.154627
160	0x4186b0f7	16.836409
161	0x4168cc98	14.54995
162	0xbf10a9ac	-0.565089
163	0x41890cbf	17.131224
164	0x418f39ce	17.903225
165	0xc225b4d6	-41.426598
166	0xc220d646	-40.20925
167	0xc1aff3b4	-21.993996
168	0x3f3d8f9a	0.74047244
169	0xc145d848	-12.365303
170	0x415d11c3	13.816836
171	0xc11cbaea	-9.795633
172	0x41e03172	28.024143
173	0xbf888374	-1.0665116
174	0xc1987b21	-19.060122
175	0xbed1327e	-0.40858835
176	0x41b88702	23.065922
177	0xbcebcdf5	-0.028784731
178	0x42551f5d	53.28063
179	0xc1a81fa6	-21.015453
180	0xc1154051	-9.328202
181	0x4138eaaf	11.557296
182	0xc17d365c	-15.825771
183	0x410c4988	8.767952
184	0xc17f07f2	-15.93944
185	0xc1430bc3	-12.1903715
186	0x3e03f3cc	0.1288597
187	0xc17146b1	-15.079759
188	0x41538a2a	13.221231
189	0xc1250a83	-10.315066
190	0x419eb45c	19.838066
191	0x4165846a	14.344828
192	0xbf141a5a	-0.5785271
193	0x4180ddfa	16.108387
194	0x4173e46e	15.243269
195	0x3e29d2ba	0.16584292
196	0x3e8db71b	0.2767876
197	0x3ee191f7	0.44056675
198	0xbec0741a	-0.37588578
199	0x3e5ff1b8	0.21869552
200	0xbeb226d0	-0.34795237
201	0x3e2d0c46	0.16899213
202	0xbdb86518	-0.09003657
203	0x3e906aae	0.2820639
204	0xbed752d3	-0.42055377
205	0xbf0e7d0e	-0.5565957
206	0xbf0c9e24	-0.54928803
207	0xbe5689be	-0.20950982
208	0xbeb63c4f	-0.35592887
209	0xbf0cd3cc	-0.55010676
210	0x3b8ab8c4	0.0042334516
211	0x3ec7beca	0.39012748
212	0xbd537300	-0.051623344
213	0xbe116867	-0.14199983
214	0xbc09fd84	-0.008422259
215	0x3e2f2494	0.17103797
216	0x3d2c0d55	0.042004902
217	0xbecd7b6e	-0.40133232
218	0xbec9b057	-0.3939235
219	0xbe8ce00d	-0.27514687
220	0xbed7041c	-0.41995323
221	0xbeb84a52	-0.35994202
222	0xbe82f580	-0.25577927
223	0xbe08d75a	-0.133634
224	0xbe266e11	-0.16252925
225	0xc217cc7d	-37.949696
226	0xc21498c7	-37.149197
227	0xc198e5db	-19.112234
228	0xc0f0f30d	-7.5296693
229	0xc0dab895	-6.835032
230	0xc099bc8a	-4.804265
231	0x41033e52	8.202715
232	0x4157f14d	13.496411
233	0x41814b09	16.161638
234	0xc205f2b4	-33.487015
235	0xc09f93e9	-4.9868054
236	0x41995992	19.168736
237	0xbdd87b93	-0.10570445
238	0x4252e7b4	52.726273
239	0xc17b695b	-15.713222
240	0x3d7b2cdb	0.061322074
241	0x3e16a692	0.14711979
242	0x3ce70f51	0.028205546
243	0xbe4ad8ec	-0.19809312
244	0x3e44dc5b	0.19224684
245	0x3d7c3920	0.061577916
246	0xbe2aafc6	-0.16668615
247	0xb9659cb9	-0.00021897526
248	0xbe0d812b	-0.13818805
249	0x3e4afd8e	0.19823286
250	0xbe99e203	-0.30055246
251	0x3d735605	0.059408206
252	0xbd78bba1	-0.060725812
253	0xbd8a0090	-0.067383885
254	0xbe1d3712	-0.15353039
255	0x3f1c44d5	0.6104253

bias f4 [32]
0	0x4125c860	10.36142
1	0xbd841fff	-0.06451415
2	0x4274a07c	61.156723
3	0x42811833	64.547264
4	0x4299e279	76.94233
5	0x426754e7	57.832912
6	0xbd3ac20e	-0.04559522
7	0x3a6f20c7	0.00091220107
8	0x427be447	62.972927
9	0xbeb69a4a	-0.35664588
10	0x4168a5e8	14.540504
11	0x428c185c	70.04758
12	0x41447f21	12.281037
13	0xbf0bfd84	-0.5468371
14	0xbe2c4211	-0.16822077
15	0x428de074	70.938385
16	0xbea19502	-0.31558996
17	0xbedc3dc9	-0.43015888
18	0x416bcb1d	14.737088
19	0xbee236fb	-0.44182572
20	0x427e9853	63.648754
21	0x428328ee	65.57994
22	0x412027e3	10.009738
23	0x42612ecd	56.295704
24	0xc15c1383	-13.754764
25	0xbd901dd4	-0.07036939
26	0x427cf6ab	63.240887
27	0xc216d660	-37.70935
28	0x41287410	10.528336
29	0x416cb3bd	14.793881
30	0x41008a02	8.033693
31	0x42475533	49.833202

weight f4 [16, 32]
0	0x415d66ef	13.83763
1	0x3c19933d	0.009373483
2	0x403dc731	2.9652827
3	0x40011f50	2.0175362
4	0x40819ed0	4.0506363
5	0x4025c608	2.5902119
6	0x3bb28191	0.0054475744
7	0x3d8594ab	0.06522497
8	0x4040dc11	3.0134318
9	0x41692601	14.571778
10	0x418c11b8	17.508652
11	0x404e9914	3.2280931
12	0x41921f6e	18.265347
13	0x3edbe0f4	0.42945063
14	0x3d1be689	0.038061652
15	0x404f4816	3.2387748
16	0x3d2b975b	0.04189239
17	0x3f4127e3	0.7545149
18	0x417ef064	15.933689
19	0x3d77ab94	0.060466364
20	0x3ff1e44c	1.8897796
21	0x404ed8a7	3.2319734
22	0x41a6f08c	20.867455
23	0x4045a03f	3.0879056
24	0x416d26ee	14.822004
25	0x3ffe01c7	1.9844292
26	0x4052b5a1	3.2923357
27	0x41645679	14.2711115
28	0x41548a20	13.283722
29	0x418d7213	17.6807
30	0x41600543	14.001285
31	0x403fa484	2.9944162
32	0x414842a7	12.516273
33	0xbdbcd60d	-0.092205144
34	0xc00485f1	-2.0706751
35	0xc04c4277	-3.1915567
36	0xc104dfd5	-8.3046465
37	0xc001f168	-2.0303593
38	0x3d76f1d8	0.060289234
39	0xbc8bc218	-0.017060325
40	0xc0144bef	-2.3171346
41	0x41227bbf	10.155211
42	0x417fcbdf	15.987273
43	0xc04e2ef2	-3.2216153
44	0x4186faac	16.872398
45	0x3e25175b	0.1612219
46	0xbe177e59	-0.14794292
47	0xc086457a	-4.195981
48	0x3e082965	0.13297041
49	0x3cb76693	0.022387778
50	0x417a9754	15.661945
51	0x3e0f956d	0.14021845
52	0xc0426e0c	-3.0379667
53	0xc02cea79	-2.701811
54	0x419d87a2	19.691227
55	0xbfbc1b8c	-1.4695907
56	0x413315dc	11.192837
57	0xbf80bf24	-1.0058331
58	0xc0139fca	-2.3066278
59	0x41769bdc	15.413052
60	0x414f5a78	12.959587
61	0x417ecf79	15.9256525
62	0x41216d88	10.089241
63	0xbf548587	-0.83016247
64	0x3f1ba96d	0.608054
65	0x3c8081c0	0.01568687
66	0xc018a97a	-2.385344
67	0x3f96652e	1.1749628
68	0x4104ad3f	8.292296
69	0xbfb2c87f	-1.3967437
70	0xbe13f69c	-0.14449543
71	0x3c8d02fc	0.017213337
72	0xc00d8304	-2.2111216
73	0x40bb9396	5.861766
74	0xbfd83c02	-1.6893313
75	0xbfbddb65	-1.4832579
76	0xbfb3d5ef	-1.4049662
77	0x3cf5eb58	0.030019447
78	0x3e34a7a1	0.1764207
79	0x40aa6a63	5.3254867
80	0xbe487251	-0.19574858
81	0xbdddf8e1	-0.108384855
82	0xbfaa4e78	-1.3305197
83	0x3d9cbc26	0.07653074
84	0x3f374b4b	0.7159926
85	0xc002b42d	-2.042247
86	0xc03f1546	-2.9856734
87	0xc061da42	-3.5289464
88	0x40e038eb	7.006948
89	0x3ef016c8	0.4689238
90	0xc02ff174	-2.7491121
91	0x40fd97a0	7.924759
92	0xbf983b1c	-1.1893039
93	0xbfccbb3f	-1.5994643
94	0x404f7578	3.2415447
95	0xc086e6fd	-4.215697
96	0x3e285281	0.16437723
97	0xbd9ef708	-0.07761961
98	0x3c3f4a20	0.011675388
99	0x3cbc8d60	0.023016632
100	0x3c71a2c0	0.014748275
101	0xbd805d92	-0.06267847
102	0xbd05fd5c	-0.032712325
103	0x3db8558a	0.0900069
104	0x3d757428	0.05992523
105	0x3cca8438	0.02472125
106	0x3dad6716	0.08466928
107	0x3d2b967c	0.04189156
108	0xbe1f834d	-0.15577431
109	0x3df0252e	0.117258415
110	0xbca435f8	-0.020045266
111	0xbda084a0	-0.07837796
112	0x3cb38d40	0.02191794
113	0xbdb3b0dd	-0.08773968
114	0x3dd65afe	0.10466574
115	0x3e17a56b	0.14809196
116	0xbdfd3d34	-0.12365189
117	0xbdbf0017	-0.09326189
118	0xbdf30bd1	-0.11867488
119	0xbe27bd3c	-0.16380781
120	0xbe047f9c	-0.12939304
121	0xbdb64454	-0.08899751
122	0xbc1ee2e0	-0.009697646
123	0xbe1f394f	-0.15549205
124	0x3e2dd091	0.16974093
125	0xbdaa45b8	-0.08314079
126	0xbdbe5780	-0.09294033
127	0xbd861666	-0.06547241
128	0xbd68192a	-0.056664623
129	0x3e2f963f	0.17147158
130	0xbeebcda2	-0.46055323
131	0xbea50d38	-0.32236648
132	0xbe8877ae	-0.26653808
133	0xbe9f420d	-0.3110508
134	0x3d71098c	0.058846995
135	0xbd469bac	-0.048488304
136	0xbeb59e36	-0.35472268
137	0xbeea7e64	-0.45799553
138	0x3c4bf1f0	0.012447819
139	0xbe856780	-0.26055527
140	0xbe102536	-0.14076695
141	0x3cd8c8c0	0.026462913
142	0xbda52bed	-0.08065019
143	0xbebf28ac	-0.37335718
144	0xbd66f7a0	-0.056388497
145	0x3db84342	0.089972034
146	0xbe02504c	-0.12725943
147	0x3e0aba87	0.13547717
148	0xbe8c7c1a	-0.27438432
149	0xbe9aec1c	-0.30258262
150	0x3bc72ca0	0.0060783178
151	0xbe2c44cb	-0.16823117
152	0xbea77e59	-0.32713583
153	0xbcc09358	-0.023507759
154	0xbefbf46a	-0.4920991
155	0xbe3f4b52	-0.18681076
156	0x3dea3e4e	0.11437665
157	0xbe0ba7bd	-0.13638206
158	0xbe6df744	-0.23238856
159	0xbedad424	-0.42739975
160	0x41599c92	13.600725
161	0xbd723d24	-0.05914034
162	0x404c1e7c	3.1893606
163	0x40084c2a	2.1296487
164	0x408347eb	4.102529
165	0x40328c57	2.7898157
166	0x3e2b4671	0.1672609
167	0x3e632846	0.22183332
168	0x40501cd9	3.2517607
169	0x41694998	14.580467
170	0x418b5344	17.415657
171	0x4052a6e9	3.2914374
172	0x419413ff	18.509764
173	0x3e5611f6	0.20905289
174	0x3d4e02ee	0.050295763
175	0x406a87a0	3.664528
176	0xbd9f8933	-0.077898405
177	0x3f5512af	0.83231634
178	0x417a211e	15.633085
179	0x3eb67ecb	0.3564361
180	0x3ffce697	1.975787
181	0x404d6f97	3.209936
182	0x41a710c0	20.883179
183	0x4039b4b3	2.901654
184	0x4168297c	14.510128
185	0x3ff1ea09	1.8899547
186	0x4056d49f	3.3567274
187	0x416e2b9d	14.885648
188	0x41581f0e	13.507582
189	0x418ba5d2	17.455967
190	0x415b3a6f	13.701766
191	0x4048ab1b	3.1354434
192	0xbe8b7e6b	-0.27244887
193	0x3bc51840	0.0060148537
194	0xbe04eda3	-0.12981276
195	0xbe34cc42	-0.17656043
196	0xbeb56a2c	-0.35432565
197	0xbe4f2b5e	-0.20231387
198	0xbd6f2f56	-0.058394752
199	0xbe2b0c26	-0.16703853
200	0xbe906433	-0.28201446
201	0xbcdc177e	-0.02686667
202	0xbde6af3a	-0.112638906
203	0xbd6de889	-0.05808309
204	0xbe92250e	-0.28543895
205	0xbe156b63	-0.14591746
206	0x3d02ba30	0.031915843
207	0xbe879f36	-0.26488656
208	0xbdb1dbaa	-0.08684476
209	0xbdc7c5d1	-0.09754527
210	0xbe39b09b	-0.18133776
211	0xbddb2e20	-0.10702157
212	0xbde9655f	-0.11396288
213	0xbe83d8af	-0.25751254
214	0xbdb6dea6	-0.089291856
215	0xbeb8582d	-0.36004773
216	0xbea0e21a	-0.31422502
217	0x3e2bc941	0.16775991
218	0xbe91ce15	-0.2847754
219	0xbda46d21	-0.08028627
220	0x3d3cbca8	0.046078354
221	0x3d75e0a4	0.060028687
222	0xbd148b39	-0.036265586
223	0xbd4a9c78	-0.049465626
224	0xbe35be90	-0.17748475
225	0xbe044347	-0.1291629
226	0xbf004271	-0.5010138
227	0xbea942b3	-0.330587
228	0xbe56a7b8	-0.20962417
229	0xbe846b99	-0.2586334
230	0x3e09f5d5	0.13472684
231	0xbe30802c	-0.17236394
232	0xbebe4c9e	-0.3716783
233	0xbe24b0e2	-0.160831
234	0xbecf9eb3	-0.40550765
235	0xbec8da6e	-0.3922915
236	0xbe843f1d	-0.25829402
237	0xbc0665d0	-0.008202985
238	0xbe06ac91	-0.13151766
239	0xbdf27774	-0.1183919
240	0x3b36f180	0.0027914941
241	0xbd952164	-0.072817594
242	0xbed9a456	-0.4250819
243	0x3dba512a	0.09097512
244	0xbec4f8d6	-0.38471097
245	0xbead7159	-0.3387554
246	0xbe535e1b	-0.20641367
247	0xbe50e5fc	-0.20400232
248	0xbdf33466	-0.118752286
249	0x3e294559	0.1653036
250	0xbed46a8b	-0.41487536
251	0xbe083391	-0.13300921
252	0x3d827608	0.06370169
253	0xbdd184b0	-0.10230386
254	0x3e13a789	0.14419378
255	0xbe6779e8	-0.22605097

bias f4 [16]
0	0x4252044e	52.504204
1	0xc1d0a14b	-26.078756
2	0x41b7aa27	22.958082
3	0x3db43bfa	0.08800502
4	0xbeed7b30	-0.46383047
5	0x4251b419	52.425877
6	0xbcfe9382	-0.031076197
7	0xbed906d6	-0.42388028
8	0xbe8bce36	-0.27305764
9	0xbe0aee81	-0.13567545
10	0x42506eaa	52.10807
11	0xc233bc8b	-44.934124
12	0xbd83cc85	-0.064354934
13	0xbcf8b3e7	-0.030359222
14	0xbee7288e	-0.45148128
15	0xbdcddc06	-0.10051732

weight f4 [1, 16]
0	0x40807ea4	4.015459
1	0x411fa443	9.977603
2	0xc18f9616	-17.948284
3	0x3e5d747a	0.21626464
4	0xbe1f176a	-0.15536276
5	0x407f2f46	3.9872603
6	0x3de6755a	0.11252852
7	0x3e939bbf	0.28829762
8	0x3dac88c1	0.08424521
9	0xbccccfd1	-0.025001438
10	0x4083e9fb	4.122312
11	0x40ebfe7e	7.374816
12	0x3de8929e	0.1135609
13	0x3d80382a	0.062607124
14	0xbe2322b2	-0.15931204
15	0x3db45717	0.088056736
